nnue_data/transformer_bias.npy (npy, 1152 bytes, 1 tensors)

array f4 [256]
000000 00 00 b8 c1 00 00 8e 42 00 00 f0 c1 00 00 00 42
       -23.0 71.0 -30.0 32.0
000010 00 00 10 41 00 00 30 c1 00 00 64 c2 00 00 40 41
       9.0 -11.0 -57.0 12.0
000020 00 00 d8 c1 00 00 01 c3 00 00 10 c1 00 00 d0 c1
       -27.0 -129.0 -9.0 -26.0
000030 00 00 20 c1 00 00 88 c2 00 00 44 c2 00 00 c8 41
       -10.0 -68.0 -49.0 25.0
000040 00 00 80 c0 00 00 ae 42 00 00 00 40 00 00 a2 42
       -4.0 87.0 2.0 81.0
000050 00 00 68 c2 00 00 c8 c1 00 00 38 42 00 00 a0 c0
       -58.0 -25.0 46.0 -5.0
000060 00 00 a8 41 00 00 a8 42 00 00 08 42 00 00 80 bf
       21.0 84.0 34.0 -1.0
000070 00 00 d0 41 00 00 10 42 00 00 de 42 00 00 d2 42
       26.0 36.0 111.0 105.0
000080 00 00 70 c2 00 00 08 c2 00 00 10 c1 00 00 e4 c2
       -60.0 -34.0 -9.0 -114.0
000090 00 00 00 c1 00 00 84 42 00 00 e8 c1 00 00 88 41
       -8.0 66.0 -29.0 17.0
0000a0 00 00 70 41 00 00 08 c2 00 00 9c c2 00 00 8e c2
       15.0 -34.0 -78.0 -71.0
0000b0 00 00 c0 c0 00 00 30 c1 00 00 30 41 00 00 dc c2
       -6.0 -11.0 11.0 -110.0
0000c0 00 00 40 40 00 00 a0 40 00 00 80 c0 00 00 7b c3
       3.0 5.0 -4.0 -251.0
0000d0 00 00 33 c3 00 00 f8 41 00 00 10 41 00 00 84 42
       -179.0 31.0 9.0 66.0
0000e0 00 00 3c c2 00 00 64 42 00 00 00 c0 00 00 60 c2
       -47.0 57.0 -2.0 -56.0
0000f0 00 00 30 c1 00 00 9a 42 00 00 18 c2 00 00 d0 c2
       -11.0 77.0 -38.0 -104.0
000100 00 00 4c c2 00 00 98 c1 00 00 84 c2 00 00 80 c1
       -51.0 -19.0 -66.0 -16.0
000110 00 00 04 42 00 00 1f c3 00 00 b0 41 00 00 5c c2
       33.0 -159.0 22.0 -55.0
000120 00 00 20 c2 00 00 20 41 00 00 80 40 00 00 78 c2
       -40.0 10.0 4.0 -62.0
000130 00 00 28 42 00 00 14 42 00 00 e0 c1 00 00 c4 c2
       42.0 37.0 -28.0 -98.0
000140 00 00 20 c2 00 00 bc c2 00 00 b6 42 00 00 80 40
       -40.0 -94.0 91.0 4.0
000150 00 00 64 c2 00 00 08 42 00 00 28 c2 00 00 80 3f
       -57.0 34.0 -42.0 1.0
000160 00 00 00 41 00 00 24 c2 00 00 20 c1 00 00 92 c2
       8.0 -41.0 -10.0 -73.0
000170 00 00 4d 43 00 00 e8 c1 00 00 60 41 00 00 38 c2
       205.0 -29.0 14.0 -46.0
000180 00 00 30 c2 00 00 be c2 00 00 40 c1 00 00 40 40
       -44.0 -95.0 -12.0 3.0
000190 00 00 2c 42 00 00 80 41 00 00 48 c2 00 00 f0 c2
       43.0 16.0 -50.0 -120.0
0001a0 00 00 0c 42 00 00 60 c1 00 00 50 c2 00 00 c2 c2
       35.0 -14.0 -52.0 -97.0
0001b0 00 00 c0 40 00 00 e8 41 00 00 a8 c1 00 00 a4 42
       6.0 29.0 -21.0 82.0
0001c0 00 00 70 c1 00 00 08 42 00 00 48 c2 00 00 dc 42
       -15.0 34.0 -50.0 110.0
0001d0 00 00 0c 42 00 00 ee c2 00 00 c0 c0 00 00 3c 42
       35.0 -119.0 -6.0 47.0
0001e0 00 00 a0 c0 00 00 f8 41 00 00 e0 c1 00 00 c0 c0
       -5.0 31.0 -28.0 -6.0
0001f0 00 00 00 41 00 80 85 c3 00 00 d0 41 00 00 e0 c1
       8.0 -267.0 26.0 -28.0
000200 00 00 20 c1 00 00 e0 41 00 00 00 41 00 00 28 c2
       -10.0 28.0 8.0 -42.0
000210 00 00 84 42 00 00 00 00 00 00 8e c2 00 00 8c c2
       66.0 0.0 -71.0 -70.0
000220 00 00 b8 c1 00 00 e0 c1 00 00 a0 40 00 00 00 41
       -23.0 -28.0 5.0 8.0
000230 00 00 f8 41 00 00 e8 c2 00 00 24 c2 00 00 c8 c1
       31.0 -116.0 -41.0 -25.0
000240 00 00 80 c0 00 00 00 43 00 00 de c2 00 00 a0 c1
       -4.0 128.0 -111.0 -20.0
000250 00 00 96 c2 00 00 b0 c2 00 00 90 c1 00 00 50 c1
       -75.0 -88.0 -18.0 -13.0
000260 00 00 88 c1 00 00 8e 42 00 00 a8 41 00 00 80 40
       -17.0 71.0 21.0 4.0
000270 00 00 f8 c1 00 00 b0 41 00 00 b4 c2 00 00 d0 c1
       -31.0 22.0 -90.0 -26.0
000280 00 00 a8 41 00 00 c0 c0 00 00 96 c2 00 00 ba c2
       21.0 -6.0 -75.0 -93.0
000290 00 00 84 42 00 00 14 42 00 00 f0 c2 00 00 84 42
       66.0 37.0 -120.0 66.0
0002a0 00 00 90 c1 00 00 24 c2 00 00 c0 40 00 00 c0 c1
       -18.0 -41.0 6.0 -24.0
0002b0 00 00 88 c1 00 00 30 c2 00 00 90 c1 00 00 d0 c1
       -17.0 -44.0 -18.0 -26.0
0002c0 00 00 5c 42 00 00 b0 c2 00 00 18 c2 00 00 c0 40
       55.0 -88.0 -38.0 6.0
0002d0 00 00 b2 c2 00 00 42 43 00 00 fa c2 00 00 54 42
       -89.0 194.0 -125.0 53.0
0002e0 00 00 90 42 00 00 bc c2 00 00 48 c2 00 00 74 c2
       72.0 -94.0 -50.0 -61.0
0002f0 00 00 00 40 00 00 88 41 00 00 ae 42 00 00 10 c2
       2.0 17.0 87.0 -36.0
000300 00 00 c2 c2 00 00 70 c2 00 00 48 c2 00 00 d2 42
       -97.0 -60.0 -50.0 105.0
000310 00 00 a2 42 00 00 18 c3 00 00 80 c1 00 00 20 c2
       81.0 -152.0 -16.0 -40.0
000320 00 00 8c 42 00 00 94 42 00 00 20 c2 00 00 10 c2
       70.0 74.0 -40.0 -36.0
000330 00 00 c8 c1 00 00 28 c2 00 00 2c c3 00 00 e0 40
       -25.0 -42.0 -172.0 7.0
000340 00 00 a0 41 00 00 40 c0 00 00 b8 c1 00 00 0a 43
       20.0 -3.0 -23.0 138.0
000350 00 00 84 c2 00 00 26 c3 00 00 e8 c2 00 00 d0 c1
       -66.0 -166.0 -116.0 -26.0
000360 00 00 f8 41 00 00 30 c1 00 00 10 c1 00 00 7c c2
       31.0 -11.0 -9.0 -63.0
000370 00 00 40 c2 00 00 8e c2 00 00 c8 c1 00 00 28 c2
       -48.0 -71.0 -25.0 -42.0
000380 00 00 4c c2 00 00 e0 c0 00 00 1c 42 00 00 64 42
       -51.0 -7.0 39.0 57.0
000390 00 00 12 43 00 00 80 42 00 00 92 c2 00 00 40 40
       146.0 64.0 -73.0 3.0
0003a0 00 00 c8 41 00 00 10 41 00 00 e0 c2 00 00 50 c1
       25.0 9.0 -112.0 -13.0
0003b0 00 00 90 c1 00 00 30 c2 00 00 04 c2 00 00 90 41
       -18.0 -44.0 -33.0 18.0
0003c0 00 00 27 43 00 00 88 41 00 00 5a c3 00 00 e0 40
       167.0 17.0 -218.0 7.0
0003d0 00 00 74 c2 00 00 c0 c2 00 00 e0 c1 00 00 fc c2
       -61.0 -96.0 -28.0 -126.0
0003e0 00 00 50 c1 00 00 05 43 00 00 10 c1 00 00 30 41
       -13.0 133.0 -9.0 11.0
0003f0 00 00 84 42 00 00 80 40 00 00 00 c2 00 00 34 c2
       66.0 4.0 -32.0 -45.0
